assets/model/model.tflite (tflite, 49216 bytes, 9 tensors)

model/conv2d/BiasAdd/ReadVariableOp f4 [16]
000000 8c 14 8d 3a 36 cf ad bb 06 80 18 bc f8 6b af bb
       0.001076357 -0.0053042425 -0.009307867 -0.005353447
000010 56 eb d1 ba 37 e5 d4 bb 26 61 e6 39 22 5d a4 bb
       -0.001601557 -0.006497051 0.000439414 -0.005015985
000020 24 c4 aa 3b 9e b9 3a 3b 63 86 cd 3a 5f 22 ef ba
       0.00521137 0.0028491984 0.0015680309 -0.0018244496
000030 34 5b c7 bb bd 33 4d bb e2 c2 56 3b 46 f0 95 bb
       -0.0060838703 -0.0031311356 0.0032769968 -0.004575762

model/conv2d_1/BiasAdd/ReadVariableOp f4 [32]
000000 72 6c 70 bb a0 f4 eb bb c0 f1 69 bc 76 7b 6c bb
       -0.0036685732 -0.0072007924 -0.014278829 -0.003608433
000010 cc b4 33 3b 3b 92 18 bb 2f 15 03 3b ca 26 1c 3b
       0.0027420996 -0.002328052 0.002000164 0.002382683
000020 aa 0a df bb 7a ed 10 bc 3e 64 1e bb 2c f4 af ba
       -0.006806691 -0.008845681 -0.0024168636 -0.0013424209
000030 ef be 89 ba fe 29 33 bc 29 12 af 3b f0 ca c5 38
       -0.0010509173 -0.010935305 0.005342741 9.431492e-05
000040 30 2a 94 3c 53 0e cc 3a 20 ff bf bb 8e 15 93 bb
       0.018086523 0.0015568234 -0.0058592707 -0.0044886535
000050 70 9e ed 3b 23 9b c1 ba f7 4f 57 bc 37 7d 5c 3a
       0.0072515532 -0.0014770966 -0.013141624 0.00084109925
000060 22 cb dd 3b 47 29 32 bb f0 dd eb 3b c8 0e 4d ba
       0.0067686 -0.0027185248 0.007198088 -0.0007822332
000070 5c d8 bd bb 15 80 bf bb bf e9 04 3b 31 bc 89 bb
       -0.0057936143 -0.005844126 0.0020280925 -0.0042033424

model/conv2d/Conv2D f4 [16, 3, 3, 3]
000000 61 74 03 3e ce 3b 17 be 1a 8b cd 3d a8 80 87 bc
       0.12837364 -0.14768907 0.10036297 -0.01654084
000010 83 5a 10 be cd b4 e3 bc e5 1e 12 3e a8 c1 04 be
       -0.14097027 -0.027796173 0.14269598 -0.12964499
000020 aa f5 20 3e f2 34 8a bd c9 f8 ba 3c 19 98 f6 3d
       0.15718713 -0.0674838 0.022823708 0.12040729
000030 89 67 3f 3e 99 77 b4 bd 01 8f 7e bd 86 8e 27 be
       0.1869184 -0.08811874 -0.062148098 -0.16362962
000040 73 4e 37 3e 76 74 95 bd 8a 55 37 3d aa 66 22 be
       0.1790102 -0.07297604 0.04475931 -0.15859476
000050 0f 74 09 3e 88 44 33 3e 3b 58 1e be 82 9e 2d 3d
       0.13423179 0.17506611 -0.15463345 0.042387493
000060 a4 46 20 bd 8e 31 02 3e 4e 72 eb 3d 32 7c 22 3d
       -0.03912987 0.12714216 0.11496411 0.039669223
000070 e1 43 33 3d 73 6d 02 be 4d a6 60 3d e8 d1 01 be
       0.043765906 -0.12737064 0.054846097 -0.12677729
000080 9b 51 af 3d f2 4c 19 be 72 4f 7d bd 77 d4 fa 3d
       0.08560487 -0.14970759 -0.061843343 0.12247556
000090 9b 52 29 bd 0c 3b 7c 3d 9d 41 98 bd dc 8a 79 bd
       -0.041338544 0.06157975 -0.0743439 -0.060923442
0000a0 c2 bd 08 be 98 ce 9b 3d 0e 76 9e 3c 66 08 00 3e
       -0.13353637 0.07607764 0.019343402 0.12503204
0000b0 5b 71 28 3e bd 2f fa bd 7c 3a d5 3c a3 e3 ce bd
       0.16449492 -0.122161366 0.026028864 -0.10102012
0000c0 b0 e5 38 3e 5e 1e 4e 3d c4 ad d2 3c b4 77 fc 3d
       0.18056369 0.05032193 0.025717624 0.12327519
0000d0 42 35 15 be ae c5 ab bd f9 27 d7 bd 7c 43 b4 bd
       -0.14571097 -0.08387314 -0.10505671 -0.08801934
0000e0 5b 66 3d be 74 e6 e9 bd 8f 07 09 3e cb 00 09 3d
       -0.18496077 -0.114209086 0.1338179 0.03344802
0000f0 94 25 a7 3c 47 fb 19 3e 21 72 8c bd ea 4f 28 be
       0.02040366 0.15037261 -0.06857706 -0.16436735
000100 f6 bd 22 3e c5 4c 46 be 23 01 16 3e 34 c9 79 3b
       0.15892777 -0.19365223 0.14648871 0.0038114311
000110 15 24 92 3d 56 2a 1e be af 65 da 3d 02 fc da 3d
       0.07135788 -0.15445837 0.10663926 0.10692598
000120 67 2d 82 bd 54 49 4f bd 02 8c ff bd 59 a9 22 3e
       -0.06356316 -0.05060704 -0.12477876 0.15884914
000130 a7 93 61 3d aa 5a 0e be 1a 30 a3 bd f5 65 df bd
       0.055072453 -0.13901773 -0.07968159 -0.10908119
000140 44 47 c5 3d 8c e7 1e be 2c 27 bb 3d 02 a8 28 3e
       0.096327335 -0.15518016 0.09138331 0.1647034
000150 ec 34 f1 bb 3b 49 34 3e 1f 82 2e bd b3 d7 0d 3e
       -0.007361045 0.1760606 -0.042604562 0.13851814
000160 4a 16 33 be 93 56 62 3d 84 3d cf 3d 51 fd 16 3d
       -0.17488971 0.055258345 0.10119155 0.036862675
000170 1f a0 7a 3d 1b 2d 01 3e bd 02 24 be 29 f2 22 3e
       0.06118786 0.12614863 -0.1601667 0.1591269
000180 b7 e6 0a be da a1 fe 3d 1c bc 3a bd 55 66 29 3e
       -0.13564573 0.124332145 -0.04558955 0.16542943
000190 b5 28 0f 3e ce 33 37 be 27 d5 1e 3e 22 f6 21 3e
       0.13980372 -0.17890856 0.15510999 0.15816548
0001a0 f6 15 20 3e d3 7a bc bd 27 e3 1f 3e 35 f7 19 3e
       0.15633377 -0.09203114 0.15613995 0.15035708
0001b0 e5 31 01 3e d2 6d 2f 3e 29 d7 98 3d 97 53 24 3e
       0.1261669 0.17131737 0.074629135 0.16047512
0001c0 ec c5 83 3d fa 21 0d be 32 0e df 3d ed c4 9d 3d
       0.06434235 -0.13782492 0.108913794 0.07703576
0001d0 d6 96 90 bd 9f 80 2c ba 02 99 ef 3d ef 72 57 bd
       -0.0706002 -0.00065804453 0.11699106 -0.052599844
0001e0 68 d1 df 3d aa 17 e7 bc cd 98 26 be 88 16 29 3e
       0.10928613 -0.028209526 -0.16269226 0.16512501
0001f0 3f aa b8 3d a2 11 31 3e 97 51 3a be 40 3d 5b 3d
       0.09016847 0.17291883 -0.18195187 0.05352521
000200 20 ff 26 3e 82 fa 9b bd 89 41 99 3c 92 c9 03 3e
       0.1630826 -0.0761614 0.018708007 0.12869862
000210 ec 80 0a 3e 63 84 7c bd 04 ac 60 3b 09 bb 75 bd
       0.13525742 -0.06164969 0.0034282217 -0.059992824
000220 09 64 f3 bd 32 9d ca 3d 96 89 18 be 0f df 0a 3e
       -0.118843146 0.09893264 -0.14896235 0.13561653
000230 67 87 10 be c0 cd 66 bd ea ea cf 3d 57 f9 0d 3d
       -0.14114152 -0.056348562 0.10152228 0.034661617
000240 d9 03 ca bd 80 d3 b5 bd 79 f5 81 bd 25 3f 0f be
       -0.09864015 -0.08878231 -0.06345648 -0.13988931
000250 03 1a bf bc 67 ae 43 bd ce 94 41 3d 78 1c 07 3e
       -0.023327833 -0.047773745 0.04726105 0.13194454
000260 0c 2a f9 bd b5 71 35 be a6 eb d4 3d d6 e8 f9 3d
       -0.12166223 -0.17719157 0.10396509 0.12202613
000270 12 6f d2 3d 7b 96 73 bd e6 da 0c 3e 51 e8 9f bb
       0.10275091 -0.05946968 0.13755378 -0.004879989
000280 cf 58 16 3c 08 89 ba bd 30 37 37 3e 14 6a 4b bd
       0.009176447 -0.09108168 0.17892146 -0.04966171
000290 ff e1 a4 bb 3a dc 28 3e f6 e2 02 3e aa f2 6d bd
       -0.0050318236 0.1649026 0.12781891 -0.05809275
0002a0 84 7c 3d 3e 1e d8 e2 bd 36 43 12 be f6 60 9f 3d
       0.1850453 -0.11076377 -0.14283451 0.07782166
0002b0 84 b0 56 3b f8 bf 24 be f0 1e 2d 3e 99 46 fd 3d
       0.003275902 -0.16088855 0.16906333 0.12366981
0002c0 fb bb 0c 3d 04 38 34 3e 4a 42 5f bd fa c5 a0 bd
       0.03435896 0.17599493 -0.054506578 -0.07850261
0002d0 f4 5e 11 3e 5f 9a 3c be ae 24 98 3d 85 aa 00 bc
       0.14196378 -0.18418263 0.07428871 -0.007853155
0002e0 d2 f1 20 be f0 90 e0 3d 69 12 99 3d a5 e5 39 be
       -0.15717247 0.10965145 0.074742146 -0.18154009
0002f0 c8 fb 98 bc 23 7f 27 bd 65 d1 11 be 8d de c1 bc
       -0.018674746 -0.04089273 -0.14240034 -0.02366569
000300 2f ab 38 3e f5 cf 8c 3d 77 d7 12 3e 56 ad a5 bd
       0.18034051 0.06875602 0.14340006 -0.08089702
000310 d8 d0 0f 3e 92 78 7c bc 13 75 f2 bc 10 c5 92 bd
       0.14044511 -0.015409606 -0.029596841 -0.07166493
000320 80 cc 09 3d 8c 98 c8 3d 51 f0 09 3e d0 e0 14 be
       0.033642292 0.09794721 0.1347058 -0.14538884
000330 6a b0 ea bd 3c ec 0a be c9 bf 39 be a9 16 28 be
       -0.114594296 -0.13566679 -0.18139566 -0.16414894
000340 2d 8f db bd 85 22 03 3e 73 31 fc 3c 5c e2 05 3e
       -0.10720668 0.12806137 0.030785298 0.1307463
000350 8d 29 f0 bd ef 15 82 3d 8d 6a 13 bd d3 ee ce 3d
       -0.11726675 0.0635184 -0.035990287 0.10104146
000360 45 fe 04 be cd e0 22 be 9c 21 62 3b b3 57 a6 bd
       -0.12987621 -0.15906067 0.0034504896 -0.08122196
000370 01 71 10 3e e0 99 eb 3b d0 1c c4 3c c6 29 11 3e
       0.14105608 0.007189974 0.02393952 0.14176092
000380 d9 87 0a bb e1 25 33 3e c6 96 b1 bc e4 95 06 3e
       -0.00211381 0.17494918 -0.02167834 0.13143116
000390 b9 71 15 3d e0 0c e3 bd 70 bf 77 3c 40 92 ca bb
       0.036485408 -0.1108644 0.015121326 -0.006181985
0003a0 7b 88 94 bd 5d 04 26 3e 56 23 f5 bd ff da 6e bd
       -0.07252594 0.16212602 -0.119696304 -0.05831432
0003b0 04 fc 08 be 69 3d 01 be ac 6b 41 bc 81 8c 2e 3e
       -0.13377386 -0.12621082 -0.011805456 0.17045785
0003c0 51 f6 ec 3c 7e 29 25 be 1c 81 d7 3d 21 9c bc bd
       0.028926047 -0.1612911 0.105226725 -0.09209467
0003d0 72 8a 92 bd 7a 8c ea bd d6 87 e3 bc cc 09 0c be
       -0.071553126 -0.11452575 -0.027774733 -0.13675612
0003e0 80 25 e3 3d 9e 8f ba bd 5e db c3 3d 7e 2e 24 3e
       0.11091137 -0.09109424 0.09563325 0.1603336
0003f0 18 94 77 bd f2 43 7b bd c9 de 2e bc 00 96 9f bb
       -0.060443968 -0.061344095 -0.010673233 -0.0048701763

model/conv2d_1/Conv2D f4 [32, 3, 3, 16]
000000 f7 5a aa bd db a3 7c 3d d7 9f 98 3d 28 ed e5 bd
       -0.083181314 0.061679702 0.07452362 -0.112268746
000010 05 78 c2 3d a1 4d 62 3d 02 b5 e1 3d dc bf 99 3d
       0.09495548 0.055249814 0.110208526 0.075072974
000020 42 39 59 bc b2 06 59 3d 07 b5 7a bd 17 55 d0 3c
       -0.01325828 0.0529849 -0.061207797 0.025431199
000030 4f b8 11 bd 52 de 4a bd 06 41 8b 3d cb dc 44 3d
       -0.03557616 -0.049528427 0.067995116 0.048062127
000040 7f 39 15 3d 07 3e b9 3d e2 fc 62 ba 67 4d ac bc
       0.036431786 0.09045034 -0.00086588983 -0.021033002
000050 67 a3 84 bc 14 b6 cf 3d ab 84 c9 3d ff 9a b7 3d
       -0.016191198 0.101421505 0.098397575 0.0896511
000060 f8 41 c7 bc c8 62 4d 3d 22 0b 32 3d 93 7b a7 3d
       -0.024323449 0.050143033 0.04346765 0.08177867
000070 01 29 5b bc ac d1 b5 ba 17 82 c7 bd c9 03 ce 3d
       -0.013376475 -0.0013871691 -0.097416095 0.10059316
000080 0a 18 fd 3c a5 f1 0a 3c 85 09 41 3d 86 57 3f bd
       0.030895252 0.008480464 0.04712822 -0.04671433
000090 bc f7 6c bd af dc 0a bc ea 6f 06 bd 39 12 c4 3d
       -0.057853445 -0.008475467 -0.032821573 0.09573788
0000a0 38 4e 26 bd b4 c3 94 3d 0c 34 cd bc 6d 3b b6 bd
       -0.04060194 0.0726389 -0.025049232 -0.08898053
0000b0 ac 62 e2 3d 09 59 9d bd b7 dd 82 bd a6 1d 71 3d
       0.110539764 -0.07682998 -0.06389945 0.058866166
0000c0 5b fb 65 3d bf bc d3 3d 1f e1 ea 3d 8b 03 8f bc
       0.056147914 0.10338735 0.1146872 -0.017457744
0000d0 ee e2 a7 bb bf 59 97 3d 15 ed b5 3c 7a 1a 8b 3d
       -0.0051234877 0.073901646 0.022207776 0.067921594
0000e0 10 ef a1 bd 66 2e 16 3d cc 31 9c 3d a2 d6 ed bd
       -0.07906926 0.036665343 0.076266855 -0.116132036
0000f0 d1 00 99 bd d4 eb 99 bd 52 0e 26 3b 70 6e 6f bd
       -0.07470859 -0.07515684 0.0025338125 -0.05845493
000100 6e d4 8f bc 23 cb 98 3c 85 6d c5 3d ca f4 1b 3d
       -0.017557349 0.01865155 0.0964003 0.038075246
000110 a7 b3 eb bd a9 3c 19 3c 3a 75 70 3c 89 fd 53 bc
       -0.11508875 0.009352841 0.0146763865 -0.012938865
000120 48 67 8f bd 04 f4 e4 3d 39 be b1 bd 3e 17 17 bd
       -0.07002121 0.11179355 -0.0867886 -0.0368874
000130 d1 d0 0b bd 8b 41 cc bc 97 2e 11 bd 07 87 9e bd
       -0.03413469 -0.024933597 -0.035444822 -0.07740598
000140 bc 6a c0 bd 65 a9 e8 3c 52 b8 b0 bd 7d 07 92 3d
       -0.09395358 0.028401086 -0.08628906 0.071303345
000150 7d 97 41 3c d3 00 dc bd 53 c4 c8 3d 8b 4f 58 3c
       0.011815903 -0.10742345 0.09803071 0.013202558
000160 37 51 df 3d 6a b3 40 bc 19 8f 4e 3d 0a 56 ef bd
       0.109041624 -0.011761526 0.050429437 -0.116863325
000170 d4 6e 0f 3d e7 fa 8e bd 61 3b 3c bd f1 a3 da 3d
       0.035017803 -0.069814496 -0.045955066 0.106758006
000180 1c d0 c1 3b 9d 04 61 bd 3e ea f6 3b e6 8e d0 3b
       0.005914701 -0.05493604 0.007535248 0.006364691
000190 00 5a ea 3d 39 5b 62 3d af dd d4 bd 0b 9a ca bd
       0.114429474 0.055262778 -0.10393845 -0.098926626
0001a0 80 87 2c 3b d7 2a 06 bd 23 ff d0 3d 5b 0f da 3d
       0.0026325881 -0.0327557 0.102049135 0.1064746
0001b0 2d b0 be bd ee c9 ca bd 19 02 3a bd 33 4b e5 3d
       -0.093109466 -0.09901796 -0.045412157 0.11195984
0001c0 65 12 dc bd 79 21 73 bd 9a 03 5e 3d 91 38 ea 3d
       -0.10745696 -0.059358094 0.054202653 0.114365704
0001d0 d0 ff bd 3d 4c ef d5 bd eb 6e 8c 3d 1e 1b cc bd
       0.09277308 -0.10446033 0.068570934 -0.0996611
0001e0 a4 a0 84 bd d6 7c 26 3d 74 cb af 3d 80 bc 93 3d
       -0.06475952 0.040646397 0.085837275 0.07213688
0001f0 a8 a4 dc bc 1f 76 26 3d 5b 14 a7 ba 06 09 6a bc
       -0.026933983 0.040639993 -0.0012747155 -0.014284378
000200 60 af 81 3d b9 0f 15 b9 14 44 93 bc 93 1c ab 3d
       0.06332278 -0.00014215604 -0.017976798 0.083550595
000210 19 9f 1f 3d 46 31 90 3d 75 4e b8 bd 78 27 50 3d
       0.038970087 0.07040648 -0.089993395 0.05081889
000220 02 97 04 bc 6c 16 3f bd a6 0e ad 3a 41 c3 a2 3d
       -0.008092644 -0.046652243 0.0013203218 0.07947398
000230 a7 a6 41 bc f7 8b b5 bd 16 d7 c6 3d 71 25 57 3d
       -0.011819518 -0.08864587 0.09708993 0.05252594
000240 eb c3 68 bd e6 68 53 bd d1 8d 78 3b 83 41 fd bd
       -0.056827467 -0.05161371 0.0037926326 -0.12366011
000250 27 26 d2 3d e5 ed dd bc 7a 12 93 3d 89 bc c0 bd
       0.10261183 -0.027090976 0.071812585 -0.0941096
000260 79 90 bd bd 59 a7 98 bd 6c a8 df 3c 38 34 b8 bd
       -0.092560716 -0.07453794 0.02730199 -0.08994335
000270 85 09 a6 3d 9a 24 11 bd b6 e3 2c 3d 9b 09 83 3d
       0.081072845 -0.035435297 0.04220935 0.063983165
000280 71 d4 ae 3d 42 8d f3 bd 63 14 df bd 72 c7 83 3d
       0.08536614 -0.11892177 -0.1089256 0.064345255
000290 78 d1 57 3b 37 e0 e5 bd 9c c2 36 3c 7e 47 fe bc
       0.003293125 -0.11224406 0.011154797 -0.03103995
0002a0 5e 78 dd bd 0b bb 9a 3d ca 5a 9a 3c ee 22 53 bd
       -0.10813974 0.07555207 0.01884212 -0.051546983
0002b0 b5 fb d7 3d 40 77 06 3d da 78 7e bd ee cc c0 3d
       0.10546056 0.03282857 -0.06212697 0.09414087
0002c0 87 45 85 3b 3a 18 ca bd 24 25 aa 3d 9e b5 85 bd
       0.004067126 -0.09867902 0.08307865 -0.06528781
0002d0 32 6b 88 3c 85 70 36 3d 79 aa cc 3d 5d 2d be 3c
       0.016652677 0.0445409 0.099934526 0.02321499
0002e0 4f 7c c5 bd 41 d2 93 3c 03 32 38 bc f0 70 23 bb
       -0.096428506 0.018044593 -0.0112423925 -0.0024939142
0002f0 7e 00 91 3d 20 28 a3 3d d3 6e b1 bd 7c 04 60 3d
       0.07080172 0.079666376 -0.08663716 0.054691777
000300 7c c0 91 bb 69 f5 01 bd 11 30 6c 3d 95 ef 92 bd
       -0.0044479948 -0.031728182 0.057663027 -0.07174603
000310 07 c0 a8 bd a6 91 28 3d 95 a6 f2 bd 6b 01 6e bd
       -0.08239751 0.041154526 -0.11848179 -0.05810682
000320 be f9 ce 3c f0 8d 7f bd 23 15 47 bd cc 43 0f 3d
       0.02526557 -0.06239122 -0.048604142 0.034976766
000330 89 c8 91 bc 74 1c 10 bd fc a8 a2 3c d7 74 ed bd
       -0.017795818 -0.035183385 0.019855969 -0.11594551
000340 10 3d b1 bd eb 18 90 bd 0f 1f 83 3d e7 a2 c5 bd
       -0.08654225 -0.07036003 0.06402408 -0.09650212
000350 b4 13 8f bd fe e0 cc 3d 93 29 7c 3d 68 42 94 3d
       -0.0698618 0.10003851 0.061563086 0.072392285
000360 97 da d0 bd 53 63 e4 3d 95 ff d2 3d 72 2f fe 3c
       -0.10197943 0.11151757 0.10302655 0.031028483
000370 07 26 e3 3d 3b a9 f8 bc 9a 0d 69 bc 4e ed b6 bd
       0.110912375 -0.030354133 -0.014224434 -0.08931981
000380 ec de 2d bd 00 dd 5f 3d 09 a1 48 bd 40 56 0e bd
       -0.042448923 0.05465412 -0.0489817 -0.034750223
000390 6f 04 4c bc 5b e5 eb bc c0 27 a2 3d 80 5a ce 3d
       -0.012452229 -0.028795889 0.07917738 0.10075855
0003a0 ae e3 79 bd 4f 55 c3 3d b8 47 e7 bd 8c 4f 96 3d
       -0.061008148 0.09537756 -0.11292976 0.07339391
0003b0 da 91 31 3d 26 f4 ca bd 5c 9e 29 3d b4 92 ac 3c
       0.043351986 -0.09909849 0.04141079 0.021066047
0003c0 36 67 ce 3d 37 bd d7 3d 0d 7f 72 3b a5 59 41 bd
       0.1007828 0.10534137 0.0037001998 -0.047204632
0003d0 11 c2 8a 3d a8 ac 8b bc 9b 2c 93 3d db 95 d7 3d
       0.067752965 -0.017050102 0.07186242 0.105266295
0003e0 b0 dd da 3d de 57 36 bc 0f 38 cf bc 36 11 87 bd
       0.10686815 -0.011129348 -0.025295286 -0.065950796
0003f0 a1 23 0b 3c cc d7 49 bd fc 9a e0 bc a1 79 ec bd
       0.008492381 -0.049278066 -0.027417652 -0.115466364

model/dense/BiasAdd/ReadVariableOp f4 [64]
000000 00 00 00 00 5e 6a 09 3b 3f 51 e8 3b 1b 80 e7 b9
       0.0 0.002096794 0.0070897634 -0.000441552
000010 4a 6c 8a bb 1f ae 41 bc 54 66 35 bb 8d 05 9a 3b
       -0.004224335 -0.011821299 -0.00276794 0.0047003687
000020 00 00 00 00 6d ee 25 bb 00 00 00 00 d6 23 09 3a
       0.0 -0.0025319115 0.0 0.0005231475
000030 4b 03 28 3b 00 00 00 00 cb d9 b0 ba 00 00 00 00
       0.0025636728 0.0 -0.0013492642 0.0
000040 00 00 00 00 9b 8c 34 3b f1 85 94 ba 07 22 58 bb
       0.0 0.0027549628 -0.0011331422 -0.0032979266
000050 00 00 00 00 cb 7d 6f 3b d9 e8 42 bb bc 01 fb 3b
       0.0 0.0036543484 -0.0029740839 0.007660119
000060 00 00 00 00 00 00 00 00 00 00 00 00 6e 15 3f bb
       0.0 0.0 0.0 -0.002915706
000070 00 00 00 00 65 02 36 bb 10 11 fa 3a 00 00 00 00
       0.0 -0.0027772423 0.0019078571 0.0
000080 f7 d2 36 bb 00 00 00 00 72 15 ca ba b0 4c fe bb
       -0.002789674 0.0 -0.0015417768 -0.0077606067
000090 73 c4 ff 3a 00 00 00 00 78 51 77 bb 9d e0 bb bb
       0.0019513502 0.0 -0.0037737768 -0.005733563
0000a0 00 00 00 00 00 00 00 00 2f 8c c0 bb fd 99 c7 39
       0.0 0.0 -0.005876086 0.00038070968
0000b0 e6 a5 1f 3b 69 1d a0 bb cd 90 23 ba 33 57 4e bb
       0.0024360358 -0.0048863185 -0.00062395335 -0.003148508
0000c0 5a f2 5a bb 00 00 00 00 00 00 00 00 0b 02 95 bb
       -0.0033408613 0.0 0.0 -0.0045473627
0000d0 00 00 00 00 00 00 00 00 00 00 00 00 00 00 00 00
       0.0 0.0 0.0 0.0
0000e0 d4 67 1b 3b 61 2d 56 bb ab 60 f3 3a 15 12 77 3b
       0.002371301 -0.0032680857 0.0018568238 0.0037699987
0000f0 00 00 00 00 e7 af 9a 39 d5 0a bf bb 32 26 de 3a
       0.0 0.00029504226 -0.0058301487 0.0016948639

model/dense_1/BiasAdd/ReadVariableOp f4 [64]
000000 00 00 00 00 75 9b 57 bb 69 d9 de ba 00 00 00 00
       0.0 -0.0032899056 -0.0017002049 0.0
000010 a3 e7 94 ba 80 08 22 3b 00 00 00 00 85 9c 25 3b
       -0.0011360537 0.0024724305 0.0 0.0025270295
000020 e9 e1 29 bb a6 04 ed bb 00 00 00 00 a0 56 1f 3b
       -0.0025922006 -0.00723322 0.0 0.0024313107
000030 45 7f 2a bb df c4 af 3b f1 9b a1 ba ab 70 16 bc
       -0.00260158 0.005364045 -0.0012329799 -0.009182136
000040 00 00 00 00 00 00 00 00 96 bc 25 3b aa 38 72 bb
       0.0 0.0 0.0025289408 -0.0036960044
000050 00 00 00 00 a2 d1 0f bc 0c 67 6c 3a 8e 53 2b bb
       0.0 -0.008778008 0.0009018041 -0.0026142332
000060 2c 85 02 3b 82 c4 c6 ba 00 00 00 00 03 58 29 bb
       0.0019915802 -0.0015164765 0.0 -0.0025839813
000070 20 95 2a bb 00 00 00 00 f3 30 24 3b 66 2c 2f bb
       -0.0026028827 0.0 0.002505359 -0.0026729344
000080 f2 48 09 3b 00 00 00 00 28 b3 c4 bb 4c 55 8a bb
       0.002094802 0.0 -0.0060028024 -0.004221594
000090 5f 8c 1f 3b 0d b5 23 3b 00 00 00 00 00 00 00 00
       0.0024345142 0.002497974 0.0 0.0
0000a0 00 00 00 00 92 4b 2b bb 36 21 ba bb 65 63 25 3b
       0.0 -0.0026137573 -0.0056802286 0.0025236246
0000b0 00 00 00 00 4d 86 29 bb 00 00 00 00 9f 5e aa bb
       0.0 -0.0025867403 0.0 -0.005199268
0000c0 7f 25 26 3b 63 b5 de bb 00 00 00 00 ea f7 2c bb
       0.002535194 -0.0067965253 0.0 -0.0026392885
0000d0 4c 09 3d bb 00 00 00 00 3f 08 8a bb 60 ca 3e bb
       -0.0028844653 0.0 -0.004212409 -0.0029112324
0000e0 00 00 00 00 52 ba bd bb 00 00 00 00 00 00 00 00
       0.0 -0.0057900334 0.0 0.0
0000f0 00 00 00 00 00 00 00 00 73 65 c3 3b f5 17 b5 bb
       0.0 0.0 0.0059630214 -0.0055265375

model/dense/MatMul f4 [64, 32]
000000 04 6e 39 be 10 19 3c 3e f0 fa b8 3d 90 30 7b 3e
       -0.18108374 0.18368936 0.090322375 0.24530244
000010 c8 94 71 3e 10 5e 22 bd 7c 67 3d be 5c 52 31 be
       0.23591912 -0.039640486 -0.18496507 -0.17316574
000020 40 8a 01 3d 8c 8c 15 be 84 ee 36 be 9c c4 02 3e
       0.031625986 -0.14604396 -0.17864424 0.12770313
000030 48 73 d0 bd c8 71 2c be e0 eb 4c bd e4 1a 09 3e
       -0.10178238 -0.16840279 -0.050029635 0.13389164
000040 60 e9 1b 3e 80 0a 59 3c 68 03 0e 3e 64 96 2a 3e
       0.15225744 0.013247132 0.13868487 0.16658932
000050 20 c2 ea bc 5c 0c 17 be 38 9a f6 bd 8c de 2c be
       -0.02865702 -0.14750808 -0.12041134 -0.1688177
000060 c0 16 53 3d f8 0e 65 be a8 15 83 3d 68 45 d5 3d
       0.051535368 -0.22368991 0.06400615 0.10413629
000070 a8 8e 2d 3e b0 af a4 3d 3c 95 31 be 1c ec 22 be
       0.1694895 0.08041322 -0.17342085 -0.15910381
000080 a8 bb c5 bc cc e8 4e be 85 c0 00 3e db 6f 5c 3e
       -0.024137333 -0.20205992 0.1257344 0.21527044
000090 99 26 68 3e a0 7d 0d 3e 63 64 a7 bd c4 4f ae 3c
       0.22670974 0.13817453 -0.08173444 0.02127827
0000a0 69 c0 17 3d e4 dd 26 bd 2c 07 dd 3c 55 26 69 be
       0.03704873 -0.040738955 0.026980959 -0.22768529
0000b0 a7 e3 0d 3e 43 df c7 bd 2f ba 54 3e 57 b4 1d 3e
       0.13856374 -0.09759381 0.20774148 0.15400825
0000c0 2c 81 0a 3d 79 68 06 be 72 52 6b be 64 67 61 be
       0.033814594 -0.1312579 -0.22980669 -0.22012097
0000d0 e6 12 cd 3d e2 0d 46 3d 1e 1b 62 bc 51 37 bb bd
       0.1001337 0.048353083 -0.013800411 -0.0914141
0000e0 35 8f 88 bd 24 66 b5 bc 96 eb 23 3e e5 73 54 be
       -0.066679396 -0.022143431 0.16007838 -0.20747335
0000f0 af f7 05 3e 24 de 00 be 87 7d 74 be c4 1b 71 3e
       0.13082765 -0.1258474 -0.2387601 0.23545748
000100 53 5d be bd 34 d8 ab bc a7 75 0b 3e 55 34 ce bd
       -0.09295144 -0.020977117 0.136191 -0.10068575
000110 50 eb 51 3e c7 52 19 be fe d4 6a be f6 4a e3 bd
       0.20499921 -0.14972983 -0.22932813 -0.11098282
000120 cb 6e 13 be e6 27 fe 3b d6 de 5c be 60 bb 38 3e
       -0.14397733 0.007756221 -0.2156938 0.18040228
000130 9a 39 f5 bd d0 fd 55 3e 3e 9c 28 3d de 9f 4f 3e
       -0.11973877 0.20897603 0.04116463 0.20275828
000140 55 b7 68 be ae dd 28 be 64 81 69 be 78 15 6f 3e
       -0.22726186 -0.16490814 -0.22803265 0.23348033
000150 4e 7d 0b be 8e 9e 3b be 8a d2 18 be 03 e5 43 3e
       -0.13622019 -0.18322203 -0.14924064 0.1913033
000160 f2 df 0c be ef 7e 81 3d 97 97 9e bc 58 32 68 be
       -0.13757303 0.06323039 -0.019359393 -0.22675455
000170 c6 9c 06 3e d3 61 64 3e c5 c6 7f bd 91 68 7b 3e
       0.13145742 0.22302942 -0.06244542 0.24551608
000180 f0 ce be 3c 10 4b 82 bd 8b a5 25 be 5b 04 e4 3d
       0.023292035 -0.06361973 -0.16176431 0.11133643
000190 2b 31 03 3d 29 a8 04 3e 78 f0 4d 3e 0d 97 05 bd
       0.032029312 0.12954773 0.20111263 -0.032614756
0001a0 f1 b3 1a be 99 c7 ee bd 0d 73 e5 bd b3 41 59 3e
       -0.15107705 -0.11659164 -0.11203585 0.21216469
0001b0 9f 32 31 3d 03 b2 68 be ca 2e 0c 3e ef b7 26 3e
       0.043261167 -0.22724156 0.13689724 0.16281103
0001c0 d6 bb 98 3d bf a4 be bd af c0 50 be a2 55 25 3e
       0.07457702 -0.093087666 -0.20386003 0.16145948
0001d0 20 08 75 3e 08 7f 5a 3e 48 73 2e be ef 80 5c 3e
       0.2392888 0.21337521 -0.17036164 0.2153356
0001e0 6d 83 2b 3c ee fa 63 3e b2 6e 3c be 62 6b 0b 3e
       0.010468346 0.22263691 -0.18401602 0.13615182
0001f0 52 98 2c be d3 26 45 3e 0a ee 72 3e df 19 48 be
       -0.1685498 0.19253092 0.23723617 -0.19541119
000200 43 fd 13 3e ec 2c 92 bd ea 84 ec 3c 8f 19 72 3c
       0.1445208 -0.071374744 0.028871972 0.014776601
000210 90 5f 38 be 26 79 c3 bd b1 56 51 be 57 8f 46 be
       -0.18005204 -0.095445916 -0.20443226 -0.19390617
000220 00 b1 26 be 86 13 f1 3a 80 a3 2f be 4c 18 4f 3d
       -0.16278458 0.0018392659 -0.17152214 0.05056028
000230 0e 94 f9 3d 70 cf 3c 3e 64 da 34 bd 32 c8 21 3d
       0.12186442 0.18438506 -0.044153586 0.03949756
000240 49 50 52 be d6 6b 0a 3e f3 f0 51 3e 00 c6 5c bd
       -0.20538439 0.13517699 0.20502071 -0.053899765
000250 6a cf 01 3e d4 c7 f4 3d 9c 08 f4 3c 53 bb b0 bd
       0.12676778 0.11952177 0.029789262 -0.08629479
000260 35 69 1d be 26 80 7e 3d ef 31 51 3c 57 92 cb 3d
       -0.15372165 0.06213393 0.012768253 0.099400215
000270 ba a8 30 3d 9d d6 6a 3e 5e 4f 22 3d eb 3b d2 3d
       0.04312966 0.22933431 0.03962647 0.10265335
000280 cb 67 f6 bd e9 4a 11 3b c1 aa 0e be 19 00 0f 3e
       -0.12031516 0.0022169894 -0.13932325 0.13964881
000290 a6 18 6b be b7 dd 73 3e 0d dd 81 3d b8 53 36 bd
       -0.22958621 0.23815046 0.0634099 -0.044513434
0002a0 1a 0e 2e 3d 7d fe 6f 3e 43 ff 68 3e 38 c3 1f bd
       0.042493917 0.23436923 0.22753625 -0.039004534
0002b0 e5 70 36 3e 1b 24 4f 3e 32 39 1c 3e e2 ea 54 be
       0.17816503 0.20228617 0.15256193 -0.20792726
0002c0 77 97 b7 3c d4 b9 6c 3e 52 a8 5d 3e 79 c9 03 3d
       0.022411091 0.23117763 0.2164624 0.03217456
0002d0 96 ef 02 be 95 2e 1a be a5 7f 32 be 63 5f 6e 3e
       -0.12786707 -0.15056832 -0.17431505 0.23278575
0002e0 ae 93 76 be c2 55 32 3e 8b 27 6b be 33 59 10 3e
       -0.24079773 0.17415527 -0.22964303 0.14096527
0002f0 97 85 02 3e e6 b7 16 3e ab 8c ae 3d 9b 3f 1d 3d
       0.12746273 0.14718589 0.08522924 0.038390737
000300 4f f5 74 bd da ba 0b be 71 0f 82 3d ac 47 95 bd
       -0.059804257 -0.13645497 0.063506015 -0.07289061
000310 c0 4a b3 3d 0f ab 1a 3e 5e d6 1a b9 a5 5e c9 3b
       0.08754492 0.15104316 -0.00014766442 0.0061453157
000320 60 1d 71 3e ff 08 9d bd 22 02 aa 3d 75 10 f7 3d
       0.23546362 -0.076677315 0.08301188 0.12063686
000330 da 75 56 bd 7c 2a 3f be 72 c2 78 be 6a 9c a3 bd
       -0.052358486 -0.1866855 -0.24292925 -0.07988818
000340 bc cd 60 bd 62 57 7a be 98 44 2e 3e 5e c9 1b 3e
       -0.054883704 -0.24447396 0.17018354 0.15213534
000350 26 cc 23 ba 7a 5d ac 3d f9 8d 0b bd 7d 71 4d 3d
       -0.0006248377 0.08416267 -0.034070943 0.05015706
000360 69 28 89 bd e3 b6 6e 3e 98 d8 22 3d f9 04 09 3d
       -0.06697161 0.23311953 0.03975734 0.033452008
000370 33 4b f0 3d 03 4a e9 3d 99 0c 63 bd b0 02 28 3e
       0.11733093 0.1139107 -0.055431936 0.16407275
000380 d7 93 0f be 76 08 0c be a8 95 b4 bd bc e4 47 3e
       -0.1402124 -0.13675103 -0.08817607 0.19520849
000390 24 c2 4f be 88 1a b0 3d 50 ac f7 bc 30 8c 90 3d
       -0.20288903 0.085988104 -0.030233532 0.07057989
0003a0 29 d8 3c bd 6d d9 09 be 2a ed 6a 3d b7 86 15 be
       -0.046104584 -0.13461848 0.057355084 -0.14602171
0003b0 46 af 13 3d b2 52 2d 3e 34 ea fb bd 53 8e a3 bd
       0.036055826 0.16926077 -0.1230053 -0.079861306
0003c0 88 ad e5 bd 6b 3e 20 bd f3 18 26 3e 00 4b 52 3e
       -0.11214739 -0.039122026 0.16220455 0.20536423
0003d0 81 09 8e bc 19 0b 98 bd 47 74 70 be 56 41 73 3e
       -0.017338516 -0.07423992 -0.23481856 0.23755392
0003e0 b8 1b ce bd b8 ce 37 bd 11 51 31 bd 2b a5 bc 3a
       -0.10063881 -0.044874877 -0.0432902 0.0014392486
0003f0 b6 27 95 3d b5 88 3d be 93 d4 33 3e f5 fe 49 3e
       0.07282965 -0.18509181 0.1756156 0.19726165

model/dense_1/MatMul f4 [64, 64]
000000 e1 00 cf bd 38 36 e6 bc 0d 16 34 be 9e d2 c6 3d
       -0.101075895 -0.028102025 -0.17586537 0.09708141
000010 58 e0 26 be 04 ad 5f 3d f9 c1 4a 3e 2d 29 57 be
       -0.16296518 0.05460836 0.19800557 -0.21011801
000020 25 7c 07 3e 80 1a ca 3b 1e 95 d7 3d 5a 63 29 be
       0.13230951 0.00616771 0.10526489 -0.16541806
000030 e2 7b c5 bd 95 6e 21 3e 10 16 b2 3c 13 b2 1e 3e
       -0.096427694 0.1576484 0.021739036 0.15497617
000040 00 ed d8 bb 8c a3 31 be 71 5e 3e be 30 5e bf bc
       -0.0066200495 -0.17347544 -0.18590714 -0.023360342
000050 dc b3 4f 3d 7f a0 03 3e 9a ab 83 3d 9c b1 8a bd
       0.050708637 0.12854193 0.06429215 -0.067721575
000060 74 b3 11 3d fe e3 9e 3d eb 5a 0c 3e 01 44 f2 bd
       0.03557153 0.0775833 0.13706557 -0.11829377
000070 88 a9 cb 3c 86 2d b7 3d 80 8b c7 ba e6 9d cb 3d
       0.024861112 0.0894423 -0.0015224069 0.09942226
000080 c9 a4 4c 3e 99 bb 41 3e 80 bd 9a 3a 97 e1 0a be
       0.19984736 0.18919219 0.0011805743 -0.13562618
000090 d9 4e 11 be de 59 fc bd 47 3b 15 3e 04 99 2a 3d
       -0.14190234 -0.12321828 0.14573394 0.041649833
0000a0 99 12 1a be c8 f6 48 be bf ce 2a be 05 b7 58 3e
       -0.15046157 -0.1962539 -0.1668043 0.21163566
0000b0 ee 31 93 3d a5 0a 01 3e 12 72 01 be 26 ba e6 3d
       0.07187258 0.12601717 -0.1264117 0.11265974
0000c0 4d 9a 04 3e e7 6e 01 3e a4 8e 11 3d 00 2b 2d be
       0.12949486 0.12639962 0.035536423 -0.16910934
0000d0 07 84 23 be 54 99 27 3d 96 a6 ab 3d f7 30 49 3e
       -0.15968333 0.04091771 0.08381383 0.19647585
0000e0 75 3f c1 bd 4b ed 40 be 8c 23 01 be 47 3b 16 3e
       -0.094359316 -0.1884052 -0.12611216 0.1467105
0000f0 5b 1f 30 3e 63 dc 04 3e ee ff e1 3d 30 ab 94 bd
       0.17199461 0.12974696 0.11035143 -0.07259214
000100 ca 0f 98 bd 3e 79 01 3e 6d 1e 2f 3d 9e 68 d8 3d
       -0.074248865 0.12643906 0.042753626 0.10566829
000110 99 46 b2 bd 1f 9a 23 3e 9e 19 38 be 74 78 39 be
       -0.08704872 0.15976761 -0.17978522 -0.18112355
000120 1e 8f c5 3d 2f ed 81 3c 20 d5 c6 3b aa 1b 8e 3d
       0.09646438 0.015860168 0.006067887 0.0693887
000130 89 3f cf 3d 52 35 1a be 8a f1 71 3d 61 86 01 3e
       0.1011954 -0.15059403 0.05906824 0.12648918
000140 cb f0 56 3e 9d 70 0b be 9a 9e 21 be 49 9a 17 be
       0.20990293 -0.13617177 -0.15783158 -0.14804949
000150 44 20 68 3d 30 b0 29 3e 12 88 4a 3e 94 78 39 3e
       0.056671396 0.16571116 0.19778469 0.18112403
000160 ad f8 0d 3e e3 2c 07 be 1a 8e 0a be f8 72 10 3e
       0.13864394 -0.13200717 -0.1353077 0.14106357
000170 a2 ac f2 3d 67 ef f3 bc f4 c2 3a be d8 68 10 bd
       0.11849333 -0.029777242 -0.18238431 -0.035256237
000180 8c 69 49 3e 1f ba d6 bd 9e f4 b4 bd b3 5f 2d be
       0.19669169 -0.104847185 -0.088357195 -0.16931038
000190 7f 0d 13 be 0a 1c fb 3d d1 c9 d3 ba 88 07 b5 bc
       -0.14360617 0.122612074 -0.0016158168 -0.022098318
0001a0 cc 3f 60 3d 94 20 13 be 43 5b c9 bd 76 e8 06 3e
       0.05474834 -0.14367896 -0.0983186 0.13174614
0001b0 9b c5 42 be 4a 71 c3 3d 9d 87 e4 bd 93 f7 d7 3d
       -0.19020693 0.095430925 -0.11158679 0.10545268
0001c0 bf 8d 08 be d4 26 5a 3d cf b7 4e be 08 97 b9 bb
       -0.13335322 0.053259686 -0.20187305 -0.0056637563
0001d0 ab 57 27 3e 40 76 00 bc 21 59 4a 3e 48 d7 53 be
       0.16342036 -0.007840693 0.19760562 -0.20687592
0001e0 02 9f b4 3c 1f 36 2b bd e8 1e 91 3c 1b b8 02 3e
       0.022048477 -0.04179966 0.017714933 0.12765543
0001f0 28 ce 19 be 73 1d ed bd b9 46 2a be 6d 81 e2 bc
       -0.15020049 -0.115778826 -0.16628541 -0.027649606
000200 3c 61 25 be e0 b4 76 bc ff bb 31 3e bf 0b 0c 3d
       -0.16150373 -0.015057772 0.17356871 0.03419089
000210 c0 be 12 3e 81 33 ba bd a9 51 14 3e 39 60 65 3d
       0.14330578 -0.09091855 0.14484276 0.05599997
000220 6f fd 55 3e b9 f6 37 3e 68 02 ae 3c 0b d6 57 3c
       0.20897458 0.17965211 0.021241382 0.01317359
000230 8b c6 59 3e 58 9c 20 be ea 3f b1 bd fb 9c 36 3e
       0.21267144 -0.1568464 -0.08654769 0.17833321
000240 5a df d1 3d 27 90 3c 3d 73 32 4c bd 29 f6 d4 bd
       0.10247679 0.046035912 -0.0498528 -0.10398514
000250 61 69 15 3e 98 ea f9 3d 41 3e 3a 3e 03 63 c6 bd
       0.1459098 0.12202948 0.1818781 -0.09686854
000260 1b b6 35 3e bf 2a 26 3e 80 2f 1f be b4 2c f3 3d
       0.17745249 0.16227244 -0.15545464 0.11873761
000270 e0 6a a6 3b 72 9c 37 bc 9f 1a c7 3d 58 b6 cd 3c
       0.0050786585 -0.011206733 0.097218744 0.025111362
000280 b5 80 53 3e b7 55 1c 3e 20 83 ac 3d 63 d2 ad bd
       0.20654567 0.15267073 0.084234476 -0.08487394
000290 99 7f f3 bd 80 97 c2 3b 31 2e 28 3e ae ab 31 3e
       -0.11889572 0.0059384704 0.1642387 0.17350647
0002a0 9a 91 b6 3d 49 6d 3b 3e ab 48 32 be 53 cc fb 3d
       0.0891449 0.18303408 -0.17410533 0.12294831
0002b0 bf a3 18 3e 50 e8 0f be 8e d8 37 3e be 37 23 be
       0.14906214 -0.14053464 0.17953703 -0.15939233
0002c0 5e 80 d2 3d 54 35 4b 3d 27 38 56 be 96 7a 9b 3d
       0.1027839 0.049611405 -0.20919858 0.07591741
0002d0 a2 ce 92 bd 61 01 3d 3e dd d0 52 3e da 18 87 3d
       -0.07168318 0.18457557 0.20587488 0.06596537
0002e0 d2 b6 7f bd 64 34 be bd cb 29 c3 bd 1f 7c 06 bc
       -0.06243021 -0.092873365 -0.09529456 -0.008208304
0002f0 5a 32 9b bd b2 ac 64 3d 46 5b 1e be 2a fb 19 be
       -0.07577963 0.055828758 -0.15464506 -0.15037218
000300 93 65 37 3e 83 1f 16 3e e9 af 0c 3e c0 f5 ac 3b
       0.17909841 0.14660458 0.1373898 0.005278319
000310 56 92 d7 3d 9a b4 98 bd 9a e7 90 3d 14 2e 0f be
       0.10525958 -0.07456322 0.070754245 -0.13982421
000320 5c 48 60 3d d0 ee 0c bc dc b9 18 bd bc 17 3a bd
       0.054756507 -0.008601859 -0.037286624 -0.04543279
000330 ec a7 65 bd ea ca 41 be f8 a6 81 bc b0 01 2a be
       -0.056068346 -0.18925062 -0.015826687 -0.16602206
000340 00 bb 64 bd 4c 7e 60 3d 45 a5 e8 bd 2a 30 d5 3d
       -0.0558424 0.054807946 -0.11359648 0.10409577
000350 da 01 cc bd 82 a4 00 be 88 23 77 bd 59 e3 50 be
       -0.09961291 -0.12562755 -0.06033662 -0.20399226
000360 00 2c 02 b9 0b e4 03 be 70 33 3e be 90 cb dd 3c
       -0.00012414157 -0.1287996 -0.1857431 0.027074605
000370 59 c4 3b 3e a8 db f8 bc c5 d7 15 3e f6 99 a6 3d
       0.1833662 -0.030378178 0.14633091 0.081348345
000380 80 dc ea ba 58 f7 e9 bd 26 0f c7 3d 31 a7 59 3e
       -0.0017918497 -0.1142413 0.09719686 0.21255185
000390 be 34 86 3d 7c 5c 5a bd 7d 5e 3a be 1c dd 07 be
       0.065530285 -0.053310856 -0.18200107 -0.1326794
0003a0 50 a9 73 bd a5 1a 26 3e ed bf 51 3e e8 52 24 bd
       -0.05948764 0.16221102 0.2048337 -0.040118128
0003b0 10 db 42 3c 00 ef 22 3a 78 8f 0a be 07 8c 42 3e
       0.011893049 0.00062154233 -0.13531291 0.18998729
0003c0 14 87 63 bd a8 5e 9e bc bc 58 0e 3d 68 dd 02 be
       -0.055548742 -0.019332245 0.034752592 -0.12779772
0003d0 25 4f 5c be 4e 90 c7 3d cc 95 2b be 9c 7a 11 3d
       -0.21514566 0.09744321 -0.16756362 0.03551732
0003e0 c4 0f 68 bd 3a be 09 be b4 e5 3e bd 1f 90 1b 3e
       -0.05665566 -0.13451472 -0.04660578 0.15191697
0003f0 2f a4 45 3e f3 39 49 be 46 bc b3 3d a2 f7 31 be
       0.19300912 -0.19651012 0.08776145 -0.1737962

model/dense_2/MatMul f4 [1, 64]
000000 00 02 82 3e d1 d7 46 bc c6 82 0d be 0c ad 58 3e
       0.2539215 -0.012136416 -0.13819417 0.21159762
000010 3c 46 53 be 1e 14 a1 3d 14 23 58 3e 3b 55 46 3e
       -0.20632261 0.07865165 0.21107131 0.1936845
000020 89 22 14 be 7c ef 80 be c4 2d 96 bd 5e 96 17 3d
       -0.14466299 -0.25182712 -0.07332948 0.037008636
000030 de 6f 0d be 47 48 0c 3d 48 15 61 3e a6 42 96 be
       -0.13812205 0.034248617 0.21980774 -0.29347724
000040 9f 68 04 be 70 a7 29 3e a5 be 83 3e 6a b0 f1 bd
       -0.12930535 0.16567779 0.25731388 -0.118012264
000050 c0 b8 66 3c 00 10 cd 3b f9 53 8f 3d 3a ca ad bd
       0.014082134 0.006258011 0.069984384 -0.08485837
000060 4d 73 28 3c 5b 69 3c be a4 3f 95 3e bb 6e 6e be
       0.010281396 -0.18399565 0.29150116 -0.23284428
000070 67 93 f7 bd 7c f6 c3 3d 0f 76 e0 3d d9 0a 40 bd
       -0.12088662 0.095684975 0.10960018 -0.046885345
000080 e9 0e 5f 3c 88 10 99 3e da b8 82 3e b2 36 90 be
       0.013614395 0.29895425 0.25531656 -0.2816673
000090 d1 ba 5a 3d f9 97 d5 3d 00 7b 98 3a 78 aa b7 3d
       0.05340082 0.10429377 0.0011633337 0.08968061
0000a0 96 78 40 be df 9c 8f bd 66 08 ad bc 47 be 6e 3e
       -0.18796 -0.07012343 -0.021122169 0.23314773
0000b0 e0 3f 42 bd 54 1e 56 be 3c 5d bc 3d a2 69 5e 3e
       -0.047424197 -0.20910007 0.091974705 0.21719983
0000c0 b2 00 5e 3e 5b a6 64 3d b0 f7 f7 3d f1 11 91 bd
       0.21679953 0.05582271 0.121077895 -0.070835
0000d0 32 d6 76 bc 75 1a 87 be d1 88 07 be 17 99 96 bc
       -0.015065717 -0.26387373 -0.13235785 -0.018383546
0000e0 6a 65 21 3e 29 91 5f 3e 78 a2 60 3d c0 90 fa 3d
       0.15761343 0.21832718 0.054842442 0.1223464
0000f0 aa 2a 93 bd 14 01 85 bd c2 5f 58 3d c8 fe 45 be
       -0.07185872 -0.06494346 0.052825697 -0.19335473
